outputs/models_deep/cnn_original_state_dict.pt (torch, 340013 bytes, 7 tensors)

conv1.weight f4 [32, 3, 3, 3]
0	0x3df8038c	0.121100515
1	0xbe3f9b96	-0.18711695
2	0x3a523f91	0.00080203364
3	0xbacc3947	-0.0015581035
4	0x3d9356eb	0.07194313
5	0xbdc12a02	-0.094318405
6	0xbe371e99	-0.17882766
7	0x3df57d6e	0.119868144
8	0x3e14aba5	0.14518602
9	0xbe0571ae	-0.13031647
10	0xbe197043	-0.1498423
11	0x3d22514b	0.03962831
12	0xbdd72f20	-0.10507035
13	0xbd548805	-0.05188753
14	0x3d98b2e2	0.07455994
15	0xbc847718	-0.01617007
16	0xbc81ae33	-0.015830135
17	0xbe16dd14	-0.14732772
18	0xbdb17eb8	-0.08666748
19	0xbced4c28	-0.028966978
20	0xbe220837	-0.15823446
21	0x3d561596	0.05226668
22	0x3e16d0fd	0.1472816
23	0xbde62a9d	-0.112385966
24	0x3e2c8b57	0.16850029
25	0xbda457ae	-0.08024536
26	0xbb86075b	-0.0040902323
27	0xbc04fbc8	-0.00811667
28	0xbddad2f1	-0.10684765
29	0x3ddd317f	0.10800456
30	0x3dde12bf	0.10843419
31	0x3dcb9eb7	0.09942382
32	0x3d019af6	0.031641923
33	0xbd5e6735	-0.054297645
34	0x3c33f4e0	0.010983676
35	0xbd240a22	-0.040048726
36	0x3d8314f3	0.0640048
37	0x3d43fa64	0.047846213
38	0x3c38ecc2	0.011286916
39	0x3d39777d	0.04527997
40	0x3e308542	0.17238334
41	0x3e3a5d74	0.18199712
42	0xbd513e75	-0.051084954
43	0x3d9ceb4f	0.07662069
44	0x3d2e6c27	0.04258361
45	0xbe618f5c	-0.22027344
46	0xbd99b16c	-0.07504544
47	0xbc46973b	-0.012121017
48	0xba11d18c	-0.0005562536
49	0xbe28ca29	-0.16483368
50	0x3d6504de	0.055912845
51	0xbc5dc132	-0.013534831
52	0x3c7a38a3	0.015272292
53	0xbbd0f944	-0.006377371
54	0xbe6e2da2	-0.23259595
55	0xbe347598	-0.17622983
56	0x3e588444	0.21144205
57	0x3caab1fe	0.020836826
58	0x3db81c05	0.08989719
59	0x3e185236	0.14875111
60	0x3da434e4	0.080179006
61	0xbe906c5b	-0.2820767
62	0x3db88b7c	0.090109795
63	0xbdd4fcc9	-0.103997774
64	0x3cd3417e	0.025788065
65	0x3d7f9962	0.062402137
66	0xbe20cfff	-0.15704344
67	0x3d67f14c	0.056626603
68	0x3cb3dfd9	0.021957325
69	0x3e293dfb	0.1652755
70	0xbe8b13be	-0.271635
71	0x3e934061	0.28760055
72	0x3d5134b6	0.05107566
73	0xbe240c91	-0.16020419
74	0x3e6a0d35	0.228566
75	0xbdaddff3	-0.084899805
76	0xbdab69c4	-0.083697826
77	0x3e7783af	0.24171327
78	0x3d4729bc	0.048623785
79	0xbe896d72	-0.26841313
80	0xbcbe260b	-0.0232115
81	0x3d22b14f	0.039719876
82	0x3dfe1a12	0.12407316
83	0x3da5543a	0.080727056
84	0x3e274682	0.1633549
85	0x3cebc7e6	0.028781842
86	0xbe119be0	-0.14219618
87	0x3d31aa66	0.043375395
88	0xbe789f0d	-0.24279423
89	0xbe5d24cf	-0.21596073
90	0x3d83486a	0.06410296
91	0xbc73bc20	-0.014876395
92	0x3dbb9d79	0.09160895
93	0x3d1519c5	0.03640153
94	0x3e00f866	0.12594756
95	0xbddae79f	-0.106887095
96	0x3dab77eb	0.08372482
97	0xbe300209	-0.17188276
98	0x3d1cdb68	0.03829518
99	0x3e02d0d8	0.1277498
100	0xbcf9fb60	-0.030515373
101	0x3ddc786f	0.107651584
102	0x3ca08bc0	0.019597888
103	0xbbfec7a0	-0.007775262
104	0xbe176af9	-0.147869
105	0x3d485aa8	0.04891458
106	0xbdfd2551	-0.12360633
107	0xbd834c15	-0.06410996
108	0x3e61d21d	0.22052808
109	0x3da1f6e2	0.07908417
110	0x3e599b61	0.21250679
111	0x3dcaaac6	0.09895854
112	0x3e2e4c00	0.17021179
113	0xbddf0549	-0.1088968
114	0x3c9677b9	0.018367635
115	0xbd06421d	-0.032777894
116	0xbe095455	-0.13411076
117	0x3e961a6f	0.29317042
118	0x3d928e9e	0.07156108
119	0xbdc273b1	-0.09494723
120	0xbd9d66be	-0.07685612
121	0x3d0f2faf	0.034957584
122	0xbd95a928	-0.073076546
123	0xbd9a7284	-0.07541373
124	0xbd3233c6	-0.043506406
125	0xbdb8aee0	-0.0901773
126	0x3d36ebfc	0.044658646
127	0x3e9f8403	0.31155404
128	0xbd2884ab	-0.041142147
129	0x3e3777dc	0.17916816
130	0x3d7f2408	0.06229022
131	0xbd633447	-0.055469777
132	0xbe502379	-0.20326032
133	0xbe560751	-0.20901228
134	0xbe982c18	-0.2972114
135	0xbd50d7cb	-0.050987046
136	0x3e2080c8	0.15674126
137	0xbe010dfb	-0.1260299
138	0xbe4da611	-0.2008288
139	0xbe91438b	-0.28371844
140	0x3dac21a2	0.084048524
141	0x3e141856	0.14462408
142	0x3e747779	0.238737
143	0x3d92cc0b	0.07167824
144	0x3d79d96c	0.060998365
145	0xbd5c2dc4	-0.053754583
146	0xbd4b9d0d	-0.049710322
147	0xbe823387	-0.25429937
148	0xbe6fc6c5	-0.23415668
149	0x3e0101cc	0.12598342
150	0xbc5862e3	-0.01320717
151	0x3e5e9be7	0.2173916
152	0xbd094bfc	-0.03351973
153	0x3da5a23c	0.080875844
154	0x3da75b8c	0.08171758
155	0xbdbf51ea	-0.09341796
156	0xbdc3c0f6	-0.09558289
157	0xbe67b422	-0.22627309
158	0x3e4ebda5	0.20189531
159	0x3e0329ec	0.1280896
160	0xbd2726d5	-0.040808517
161	0xbe08ee26	-0.13372096
162	0xbda01e7d	-0.07818315
163	0xbe4a54eb	-0.19758956
164	0x3dc2799c	0.094958514
165	0xbcadf1ab	-0.0212334
166	0x3dc71735	0.09721223
167	0x3d80e1a6	0.06293039
168	0xbe3f53de	-0.18684337
169	0xbe7fcc68	-0.24980319
170	0xbd2c24fc	-0.04202746
171	0xbe03d3b7	-0.12873732
172	0xbe8f0e3a	-0.27940542
173	0xbe3ff8b1	-0.18747212
174	0x3e3d157f	0.18465231
175	0x3e947f04	0.29003155
176	0x3e89c106	0.26905078
177	0x3d9659aa	0.07341321
178	0xbca5ad12	-0.020224128
179	0xbe593381	-0.21211053
180	0xbdbc3db0	-0.091914535
181	0x3abb5deb	0.0014294958
182	0xbe810c91	-0.252049
183	0x3e68e36e	0.22743008
184	0x3e97d14a	0.29651862
185	0x3e49e173	0.19714908
186	0xbd868959	-0.06569166
187	0xbdaeaaaa	-0.08528645
188	0xbe033265	-0.12812193
189	0xbd47677e	-0.048682682
190	0xbcdf38e1	-0.027248802
191	0xbd4559b5	-0.048181254
192	0x3d577235	0.05259915
193	0x3c8eaab4	0.017415382
194	0x3e02c3e0	0.12770033
195	0xbe95e593	-0.29276714
196	0xbe930e2b	-0.28721747
197	0x3e8d70af	0.27625033
198	0xbe0d6396	-0.1380752
199	0x3c868406	0.016420376
200	0xbdaf226a	-0.08551486
201	0x3e2cccb3	0.16874962
202	0xbd7e1898	-0.062035173
203	0xbb8f8f35	-0.0043810853
204	0xbf196b33	-0.599292
205	0xbf59e77c	-0.8511884
206	0x3dd3df9c	0.103453845
207	0xbb75625e	-0.0037442665
208	0xbd32b101	-0.043625835
209	0xbd7fcf0c	-0.062453315
210	0x3e1a396b	0.15060966
211	0x3e85c583	0.26127252
212	0x3dae113c	0.08499381
213	0xbe8b574c	-0.2721504
214	0xbf14d14f	-0.5813188
215	0xbda92b1e	-0.08260177
216	0x3e636141	0.22205068
217	0x3e242722	0.16030553
218	0x3d568367	0.05237141
219	0xbc2eb8f1	-0.010664211
220	0xbe64cb9c	-0.22343296
221	0xbe5d545e	-0.21614215
222	0xbe26ff26	-0.16308269
223	0xbd785938	-0.06063196
224	0x3d6e5e05	0.058195133
225	0x3e8a3cb2	0.26999432
226	0x3dcfd7fd	0.10148618
227	0xbd16a5a7	-0.036779072
228	0x3c6d2709	0.014474639
229	0xbdda1041	-0.106476314
230	0xbe3b196b	-0.18271415
231	0xbea79d63	-0.32737264
232	0x3e1d6c06	0.15373239
233	0x3dd99b13	0.10625281
234	0x3e0b65a1	0.13612987
235	0x3d19cf75	0.037551362
236	0x3ca7364d	0.020411635
237	0x3d879603	0.06620409
238	0xbd42f38d	-0.04759555
239	0xbe59c591	-0.21266772
240	0xbe5af8a0	-0.21383905
241	0x3da25c2b	0.07927736
242	0x3e9c5370	0.30532408
243	0x3dd0c58d	0.1019393
244	0x3a4d0669	0.00078210846
245	0xbdac32cb	-0.084081255
246	0xbcc7cb7e	-0.024389025
247	0x3e0d996e	0.1382806
248	0x3e02f716	0.12789568
249	0xbea02bfe	-0.31283563
250	0xbcc721d6	-0.024308126
251	0x3e1732fd	0.14765544
252	0xbe20fdd8	-0.15721834
253	0x3e3fcb63	0.1872993
254	0x3dd9989e	0.106248125
255	0xbe5312c4	-0.20612627

conv1.bias f4 [32]
0	0xbe22ca7a	-0.15897551
1	0x3d56c43e	0.052433245
2	0x3a96d052	0.0011506176
3	0x3d2c8064	0.04211463
4	0xbe20381c	-0.15646404
5	0xbcc15373	-0.023599362
6	0x3dfa2692	0.12214388
7	0x3de39edc	0.111142844
8	0xbd95277b	-0.07282921
9	0x3c9bc05b	0.01901262
10	0xbb70e533	-0.0036757707
11	0xbe02cedc	-0.12774223
12	0xbde59ee1	-0.11211944
13	0xbdb5dba8	-0.08879787
14	0x3dcc534d	0.09976826
15	0x3ce6509e	0.028114613
16	0x3daeb8df	0.08531355
17	0x3cba7db4	0.022765018
18	0x3db4978b	0.08817967
19	0xbd366510	-0.044529974
20	0xbc252636	-0.010079911
21	0xbcc9b9e5	-0.024624774
22	0xbddfbc48	-0.10924584
23	0xbd686a26	-0.056741856
24	0x3e886571	0.26639894
25	0xbc6f2e6b	-0.014598469
26	0x3e06919a	0.1314148
27	0xbcfa8536	-0.030581098
28	0xbef16648	-0.47148347
29	0xbc980a47	-0.018559588
30	0x3e849ce7	0.25900957
31	0xbd4be6be	-0.0497806

conv2.weight f4 [32, 32, 3, 3]
0	0xbd4c240b	-0.04983906
1	0xbba3b1d0	-0.004995562
2	0xbcb57142	-0.022148732
3	0x3d15c0d1	0.036560837
4	0x3d1a293b	0.037636977
5	0xbd64d2e6	-0.05586519
6	0x3d171db9	0.03689358
7	0x3cc12666	0.02357788
8	0xbd585570	-0.052815855
9	0x3db5e22b	0.08881029
10	0x3dc1f49c	0.09470484
11	0x3dd29d42	0.10283901
12	0x3de5fec1	0.11230231
13	0x3d2db1e7	0.04240599
14	0x3df8e2aa	0.12152608
15	0x3dab2684	0.08356956
16	0x3c792c0b	0.015208255
17	0x3e1e1ed8	0.15441453
18	0xbdb186c4	-0.08668283
19	0xbd39efa3	-0.04539455
20	0x3d84e42c	0.06488833
21	0xbe87a862	-0.26495653
22	0xbc6801cf	-0.014160587
23	0xbd9e6389	-0.077338286
24	0xbe7de649	-0.24794878
25	0xbd601349	-0.05470589
26	0xbdac10ab	-0.08401617
27	0x3d6a6587	0.05722573
28	0x3e3be5ff	0.18349455
29	0x3dc53b01	0.09630395
30	0x3df8b178	0.121432245
31	0x3dca540a	0.098793104
32	0xbb3f401c	-0.00291825
33	0xbe27901d	-0.16363569
34	0xbdb80fe3	-0.08987405
35	0xbe065aad	-0.13120528
36	0xbd3ee012	-0.04660041
37	0xbe13599b	-0.1438965
38	0xbde62207	-0.11236959
39	0x3df69b27	0.12041312
40	0x3d6ba3ba	0.05752919
41	0xbb5c5f6b	-0.003362621
42	0x3e021b63	0.1270576
43	0xbdd2e730	-0.10298002
44	0xbe0f5f3f	-0.14001177
45	0x3f2e9280	0.6819229
46	0x3e666363	0.2249885
47	0x3e586be3	0.21134906
48	0x3ee50fb6	0.4473855
49	0x3d241a88	0.040064365
50	0xbe0d306a	-0.13788
51	0x3f124548	0.57136965
52	0x3e965bbe	0.2936687
53	0x3e042993	0.12906484
54	0x3e76eefe	0.24114606
55	0x3dd6a6f7	0.10481065
56	0x3e30ab6e	0.17252895
57	0x3ce80131	0.02832088
58	0x3e4155c4	0.18880373
59	0x3e7dd1fe	0.24787137
60	0xbbbf4538	-0.005837109
61	0xbe935c3c	-0.28781307
62	0xbda6948c	-0.08133802
63	0x3eb79e4e	0.35862964
64	0x3df6254a	0.12018831
65	0x3ec55916	0.3854453
66	0x3e3da5e4	0.18520314
67	0xbb65521f	-0.0034991575
68	0x3e3e1ac0	0.18564892
69	0xbf0004fa	-0.50007594
70	0xbd87a4e3	-0.066232465
71	0x3e961b8c	0.29317892
72	0xbdf97035	-0.12179605
73	0xbe8b744b	-0.27237162
74	0xbc18508f	-0.00929655
75	0xbd2e4f50	-0.042556107
76	0xbb7fe274	-0.0039044889
77	0xbd384850	-0.044990838
78	0x3e0419a9	0.12900414
79	0xbe6c8961	-0.23099281
80	0xbe0ca976	-0.13736519
81	0xbcbf42a6	-0.02334721
82	0xbd9ec209	-0.07751853
83	0xbdd62388	-0.10455996
84	0x3e439b3f	0.1910219
85	0x3d78501f	0.060623284
86	0x3cceb07c	0.025230639
87	0xbd20f955	-0.03930028
88	0xbcbdd139	-0.023171054
89	0x3dac37c8	0.08409077
90	0xbe275eab	-0.16344707
91	0x3daf5731	0.08561552
92	0x3e253670	0.16134048
93	0xbe0d2ed9	-0.13787402
94	0x3d513410	0.05107504
95	0x3d97d5e3	0.074138425
96	0xbea4d158	-0.32190967
97	0xbe0e9822	-0.13925222
98	0xbdde7abb	-0.10863253
99	0x3e571329	0.21003403
100	0xbd2356ec	-0.039877817
101	0xbd896eaa	-0.067105606
102	0xbd8db7a2	-0.06919791
103	0xbdbf8b25	-0.093527116
104	0x3ca3a963	0.01997823
105	0x3d907418	0.07053393
106	0xbde7b5b9	-0.11313958
107	0x3deafdda	0.114741996
108	0xbd11e058	-0.03561434
109	0xbe06f829	-0.13180603
110	0xbe2e71e1	-0.17035629
111	0xbd14ee95	-0.036360342
112	0xbdd48197	-0.1037628
113	0xbd9d6f2a	-0.076872185
114	0x3c8fd5cf	0.017558007
115	0x3c95bc7a	0.01827835
116	0x3db0bd17	0.08629816
117	0xbe0dc4e7	-0.13844644
118	0xbd9df8ee	-0.07713495
119	0x3e45632c	0.19276112
120	0xbe586d6d	-0.21135493
121	0xbdc75d7b	-0.09734627
122	0x3d8c58a6	0.06852846
123	0xbf12903b	-0.5725133
124	0xbe39a6fd	-0.18130107
125	0xbe00f3d3	-0.12593012
126	0xbe1e6448	-0.15467942
127	0x3d7103d4	0.05884154
128	0x3d9de4d3	0.077096604
129	0x3d74750f	0.05968195
130	0x3dd3dff2	0.103454486
131	0x3e97b540	0.2963047
132	0xbe6d13cc	-0.23152083
133	0x3d4cf2a4	0.050036088
134	0x3dc88ae7	0.097921185
135	0x3db8ba23	0.09019878
136	0xbe08cb27	-0.13358746
137	0x3de7bed8	0.113156974
138	0x3dc39969	0.09550745
139	0xbe0339e5	-0.12815054
140	0x3ab2dc7e	0.0013646034
141	0xbd820345	-0.0634828
142	0xbe30b50c	-0.17256564
143	0xbe16bc89	-0.14720358
144	0x3cc5416f	0.024079053
145	0xbd8d2e17	-0.068935566
146	0xbd790a76	-0.060800992
147	0xbdb88245	-0.09009222
148	0x3d3d95fa	0.046285607
149	0x3dbd5f2d	0.09246669
150	0xbd83ed32	-0.06441726
151	0xbc6dc4a0	-0.014512211
152	0xbca4dd5f	-0.02012509
153	0xbea82af3	-0.32845268
154	0x3c0715ea	0.008244971
155	0x3d69210b	0.056916278
156	0xbec5ed6d	-0.38657704
157	0xbe89976f	-0.26873347
158	0xbc9e3597	-0.019312663
159	0xbf3b0f70	-0.7307043
160	0xbeee9043	-0.46594438
161	0xbf15a76e	-0.584586
162	0xbcb6b52e	-0.02230319
163	0x3db0b5cc	0.08628425
164	0x3e3894e7	0.18025552
165	0xbdb3a0e0	-0.08770919
166	0x3cb0d44e	0.02158561
167	0x3cc85255	0.024453321
168	0xbd932afe	-0.071859345
169	0xbd853243	-0.06503727
170	0xbd894300	-0.06702232
171	0x3dbb39f6	0.091419145
172	0x3bd97e65	0.006637382
173	0xbdb7d8be	-0.08976887
174	0xbcf4d40a	-0.029886264
175	0xbce024dd	-0.027361328
176	0xbcebe402	-0.028795246
177	0x3d35290a	0.04422859
178	0xbc951a2b	-0.018200954
179	0xbd995238	-0.07486385
180	0xbe7f7410	-0.24946618
181	0xbd8fbfba	-0.07018991
182	0x3dc4c698	0.09608191
183	0xbd6ceece	-0.05784493
184	0xbe825038	-0.25451827
185	0xbd990f1f	-0.07473587
186	0xbe4e7e44	-0.20165354
187	0x3d64e08a	0.0558782
188	0xbe6c4143	-0.2307177
189	0x3e4eca64	0.20194393
190	0x3b07b840	0.0020709187
191	0x3e20e0c9	0.15710749
192	0x3e59b3be	0.21259972
193	0xbe367f90	-0.17822099
194	0x3dc237b5	0.094832815
195	0x3e3d0f17	0.18462788
196	0xbc981ac7	-0.018567456
197	0x3d4ee577	0.050511803
198	0x3d829de1	0.06377769
199	0xbd182be0	-0.037151217
200	0x3db8bce8	0.09020406
201	0x3e16997f	0.14706992
202	0x3c1cc0f6	0.00956749
203	0x3cd9c624	0.026583739
204	0x3e5525b7	0.20815168
205	0x3d8296a2	0.06376387
206	0x3e094677	0.13405786
207	0x3c516a5b	0.012781705
208	0xbddffe60	-0.1093719
209	0xbd7367cc	-0.05942516
210	0x3df445bd	0.11927364
211	0xbcf1aae7	-0.029500438
212	0xbc61f97f	-0.013792395
213	0x3e16856b	0.14699332
214	0x3d0634ac	0.032765076
215	0x3e63d74b	0.22250096
216	0x3e75358c	0.23946208
217	0x3cd3dfe3	0.025863593
218	0x3d0e8488	0.03479436
219	0x3e0dc86e	0.13845989
220	0x3e39f769	0.18160786
221	0x3db7a48e	0.08966933
222	0xbd3cb7bf	-0.04607367
223	0xbd692494	-0.05691965
224	0xbea44f48	-0.32091737
225	0xbd548be0	-0.051891208
226	0x3d36e0a4	0.044647828
227	0x3db44916	0.088030025
228	0xbc5a84b4	-0.013337303
229	0x3d15247a	0.03641174
230	0x3d208b4e	0.03919535
231	0xbe9cf293	-0.3065382
232	0xbe7d6775	-0.24746497
233	0xbe036e5d	-0.12835069
234	0x3e126bd3	0.14298944
235	0x3d84f6e6	0.06492405
236	0x3ddfdf19	0.109312244
237	0xbcf04f39	-0.029334651
238	0x3d0e639b	0.03476296
239	0x3c15ef1d	0.009151247
240	0x3e6414ee	0.22273609
241	0x3dbeabf6	0.09310143
242	0x3b22e4d9	0.0024855642
243	0x3de8c90c	0.11366472
244	0x3c4016bc	0.01172417
245	0xbcc1624a	-0.023606438
246	0x3c620294	0.01379456
247	0xbd7c426f	-0.061586794
248	0x3e205468	0.15657198
249	0x3d775989	0.06038812
250	0x3d620dcd	0.055188943
251	0x3e0247c0	0.12722683
252	0x3e68215f	0.2266898
253	0xbe6fbf2d	-0.23412772
254	0xbe86f011	-0.2635503
255	0xbdaa9086	-0.08328347

conv2.bias f4 [32]
0	0x3e26563d	0.16243835
1	0xbe3f3553	-0.18672685
2	0x3ca3d49c	0.019998841
3	0xbd98a4c2	-0.074533
4	0xbdaabb4f	-0.083365075
5	0xbcc904e8	-0.024538472
6	0xbd467d9b	-0.04845963
7	0xbe1c8d64	-0.15288311
8	0xbd9c61b1	-0.07635821
9	0x3d411c3b	0.047146063
10	0x3d0b286a	0.03397409
11	0x3e4202a9	0.18946327
12	0xbd072641	-0.032995466
13	0x3c38695f	0.011255591
14	0xbd4cf05c	-0.050033912
15	0x3dd4d497	0.10392111
16	0x3bc02714	0.0058640335
17	0x3d5a4de6	0.053296946
18	0x3dde22cb	0.1084648
19	0x3d3b9ecd	0.04580574
20	0xbe6192cb	-0.22028653
21	0xbc80d1bd	-0.015725011
22	0xbd8fb952	-0.07017769
23	0x3c3307b2	0.010927128
24	0x3d2535c5	0.04033448
25	0xbd7411e1	-0.059587363
26	0xbde6e32f	-0.112738006
27	0xbde2ac2c	-0.110679954
28	0xbd3f1734	-0.046652988
29	0xba47069e	-0.00075922336
30	0xbd7b4a5d	-0.061350215
31	0x3e347402	0.17622378

fc1.weight f4 [64, 1152]
0	0x3e396962	0.18106607
1	0x3e8aff74	0.2714802
2	0x3e4b2ea3	0.19842009
3	0x3de242aa	0.110478714
4	0x3e2ef8a7	0.17087041
5	0x3e4a1f9a	0.19738618
6	0x3d87e2bc	0.06635043
7	0x3dc85f4c	0.097838014
8	0x3cb25f08	0.02177383
9	0xbd255510	-0.040364325
10	0x3e340d8c	0.17583293
11	0x3da44739	0.08021397
12	0x3deb9883	0.11503699
13	0xbde3616b	-0.111025654
14	0xbe12c04b	-0.14331166
15	0xbdee0111	-0.11621297
16	0xbdb3b370	-0.08774459
17	0x3c127e02	0.008941175
18	0xbe7441a2	-0.23853162
19	0xbd015e7d	-0.03158425
20	0xbe2d37a5	-0.16915758
21	0xbeb228e2	-0.34796816
22	0xbd81351a	-0.063089564
23	0xbb7ee2cb	-0.0038892503
24	0xbe3c4cc2	-0.18388656
25	0x3decea4a	0.115681246
26	0xbc70034e	-0.014649225
27	0x3d3f8cbe	0.04676508
28	0x3d378a4b	0.04480962
29	0xbc85dbda	-0.016340185
30	0xbead2a87	-0.33821508
31	0xbdc4a9d7	-0.09602707
32	0xbc97c605	-0.01852704
33	0xbd2ef31e	-0.042712323
34	0xbd660fdb	-0.056167465
35	0xbd9dbe30	-0.07702291
36	0xbe6fb08e	-0.23407194
37	0xbe46e387	-0.19422732
38	0xbebd9d94	-0.37034285
39	0xbf02db7e	-0.5111617
40	0xbe557db6	-0.20848736
41	0xbed81c32	-0.4220901
42	0xbe26e677	-0.16298853
43	0xbe11d382	-0.1424084
44	0xbdee8a53	-0.11647477
45	0xbe5a7abe	-0.21335885
46	0xbd0a42be	-0.033755057
47	0xbe421032	-0.1895149
48	0xbebe730f	-0.37197158
49	0xbe57f026	-0.21087703
50	0xbea1dfe9	-0.31616142
51	0x3de85784	0.11344817
52	0x3c995309	0.018716352
53	0xbdefef67	-0.11715584
54	0xbe32e15c	-0.1746878
55	0xbd671548	-0.05641678
56	0xbb550234	-0.0032502534
57	0xbd63a9af	-0.055581745
58	0x3d2f3089	0.042770896
59	0xbdbbb8e2	-0.09166123
60	0xbe401d17	-0.18761097
61	0x3d975b16	0.0739042
62	0x3da93779	0.08262534
63	0x3e3c2b2f	0.18375848
64	0x3c754c64	0.014971826
65	0xbdd78f38	-0.10525364
66	0x3d9adc67	0.0756157
67	0x3e931550	0.28727198
68	0x3da4437a	0.08020683
69	0xbd811885	-0.06303505
70	0x3c076f21	0.008266241
71	0x3d5ba133	0.05362053
72	0xbcb07121	-0.021538319
73	0xbe382c70	-0.17985702
74	0x3d9c8044	0.07641652
75	0xbd66a79b	-0.056312185
76	0x3cb2a913	0.021809136
77	0xbdbddc26	-0.092705056
78	0xbdada79d	-0.08479235
79	0x3e451b76	0.19248757
80	0x3e22aa00	0.15885162
81	0x3d07b292	0.033129282
82	0xbd0a477b	-0.033759575
83	0x3d621fe8	0.05520621
84	0x3e022231	0.12708355
85	0x3e655cff	0.22398756
86	0x3df4a51f	0.11945557
87	0xbce3f1d4	-0.027825274
88	0x3d4d0012	0.050048895
89	0xbe0487f9	-0.12942494
90	0x3e62bb13	0.22141676
91	0x3e3c6ba6	0.1840044
92	0xbc33f8f5	-0.010984649
93	0x3d2026e1	0.039099578
94	0xbd3eb1ab	-0.046556156
95	0xbd90b2cb	-0.07065352
96	0x3b8e0017	0.004333507
97	0x3cbe612e	0.023239698
98	0xbe16e884	-0.14737135
99	0xbb945799	-0.004527044
100	0xbe21c308	-0.15797055
101	0xbca4da51	-0.020123633
102	0x3ddff158	0.109347045
103	0xbdc6a9ac	-0.09700331
104	0xbd2893df	-0.041156646
105	0x3d689287	0.056780364
106	0x3d27d921	0.040978555
107	0x3e3847b9	0.1799611
108	0xbc3ced4e	-0.011531187
109	0xbc65060e	-0.013978494
110	0xbccaeb96	-0.02477054
111	0xbc80c774	-0.015720107
112	0x3c9a2091	0.018814357
113	0xbc52511e	-0.012836723
114	0xbbaf5be8	-0.0053515323
115	0x3c11e83e	0.0089054685
116	0xbca27fbc	-0.0198363
117	0x3c9774af	0.018488256
118	0x3c606f0e	0.0136983525
119	0x3cc09e0b	0.02351286
120	0x3ce9317b	0.028465977
121	0x3c9bfc69	0.019041257
122	0xbcd19212	-0.025582347
123	0xbc840ee1	-0.016120376
124	0x3c122e3e	0.008922158
125	0xbc6cc2cf	-0.014450743
126	0xbc7b5106	-0.015339142
127	0x3bdb96f4	0.0067013446
128	0x3aaaa040	0.0013017729
129	0xbba4d96c	-0.0050308015
130	0x3c9e253f	0.01930487
131	0xbcd712c6	-0.026254069
132	0xbc39d436	-0.011342099
133	0x3cdb7a53	0.026791727
134	0x3ceb977d	0.028758759
135	0xbb44d65a	-0.003003499
136	0xbc9848f6	-0.018589478
137	0x3c6c1df6	0.01441144
138	0xbc87586e	-0.016521659
139	0xbcaf503c	-0.021400563
140	0x3c541eea	0.012946824
141	0xbcdfa0fa	-0.02729844
142	0xbcd5dd32	-0.02610645
143	0x3cea2595	0.028582374
144	0xbf0b96b2	-0.5452682
145	0xbd6e50f5	-0.058182675
146	0x3e36ad76	0.17839608
147	0xbe4bd7d2	-0.19906548
148	0xbe4df347	-0.20112334
149	0xbe688c03	-0.2270966
150	0xbe0a8698	-0.13527906
151	0xbd47fef2	-0.04882712
152	0xbe0d4f14	-0.13799697
153	0xbe0172b4	-0.12641412
154	0xbe22b981	-0.15891077
155	0xbe0c380a	-0.13693252
156	0xbe37dc53	-0.17955141
157	0xbe55d730	-0.20882869
158	0x3d9fc16f	0.078005664
159	0xbc938ba3	-0.01801092
160	0xbe032a88	-0.12809193
161	0x3d827031	0.06369055
162	0xbe2c1a69	-0.1680695
163	0xbe3af88d	-0.18258877
164	0x3e0e3608	0.13887799
165	0x3d68f499	0.05687389
166	0x3cd2fae2	0.025754396
167	0x3e00090d	0.12503453
168	0xbdb1e3ff	-0.08686065
169	0xbdfab0e2	-0.12240769
170	0x3e0a483c	0.13504118
171	0x3d7bbb1b	0.061457735
172	0x3d78eb11	0.06077105
173	0xbe26cfc7	-0.16290198
174	0xbdc488f3	-0.095964335
175	0xbcac1788	-0.021007314
176	0xbcf9180f	-0.03040698
177	0xbd03da40	-0.03219056
178	0x3e04f44a	0.12983814
179	0x3dff59b9	0.12468285
180	0xbc914139	-0.017731296
181	0x3e342c68	0.17595065
182	0x3e444122	0.19165471
183	0x3e5ce2d0	0.21570897
184	0xbc8ac0bf	-0.016937612
185	0xbdd26050	-0.102722764
186	0xbc5ce023	-0.013481173
187	0xbe7ca883	-0.24673657
188	0xbdc440c3	-0.09582665
189	0xbe7ac6ff	-0.24489973
190	0x3d94af9d	0.07260058
191	0xbd370e9b	-0.044691663
192	0x3c85fb20	0.016355097
193	0xbc96313b	-0.018334022
194	0xbd543f94	-0.051818445
195	0xbdbdce29	-0.092678376
196	0xbbd1b7e5	-0.0064000958
197	0xbe3cb067	-0.18426667
198	0xbdcdcb15	-0.100485004
199	0xbe09593e	-0.1341295
200	0xbddaeee1	-0.10690094
201	0xbe0dd8cf	-0.13852237
202	0xbdf48088	-0.11938578
203	0xbd43ad69	-0.0477728
204	0xbcea37b4	-0.028591014
205	0xbd174484	-0.036930576
206	0x3cd9d876	0.026592474
207	0xbb6f6e26	-0.003653416
208	0xbd9cf5d6	-0.07664077
209	0xbd088edd	-0.03333937
210	0x3d9b7457	0.075905494
211	0x3df65340	0.120275974
212	0xbd0747d6	-0.033027492
213	0xbd202dec	-0.039106295
214	0x3d4960e8	0.049164683
215	0x3d86564b	0.06559428
216	0xbf3b6059	-0.7319389
217	0xbf142467	-0.57868046
218	0xbe974201	-0.29542544
219	0xbefba2ce	-0.49147648
220	0xbecdd7b1	-0.40203622
221	0xbf1fc370	-0.6240759
222	0xbf02d493	-0.5110561
223	0xbe9b56ee	-0.3033976
224	0xbe05bcc3	-0.13060288
225	0x3c288427	0.010285414
226	0x3c793551	0.0152104655
227	0xbe906b4f	-0.2820687
228	0xbf26db6f	-0.6517858
229	0xbebea277	-0.37233326
230	0xbed1dece	-0.409903
231	0xbde4d1c7	-0.11172824
232	0xbe6f3a5b	-0.23362105
233	0xbed68c57	-0.41903946
234	0xbe2f5216	-0.17121157
235	0xbe536047	-0.20642196
236	0xbcb13b62	-0.021634761
237	0xbe4798d5	-0.19491895
238	0xbd125b05	-0.035731334
239	0xbd7aca3c	-0.061228022
240	0xbe7fa613	-0.24965696
241	0xbdac40ff	-0.084108345
242	0x3d19a548	0.03751114
243	0xbdc632e2	-0.09677674
244	0x3c46b8cc	0.01212902
245	0xbe1a9dd8	-0.15099275
246	0xbcfd4ef3	-0.030921435
247	0x3ea01290	0.31264162
248	0x3e109faa	0.14123407
249	0xbe1ce445	-0.15321453
250	0xbc3e687e	-0.011621593
251	0x3c6a7e6e	0.01431237
252	0x3daeffa5	0.08544854
253	0xbd8f4210	-0.06995022
254	0x3db51b87	0.08843141
255	0xbd39377d	-0.045218933

fc1.bias f4 [64]
0	0x3ce7829e	0.028260525
1	0x3c183fd2	0.00929256
2	0x3c28b166	0.010296201
3	0x3d867915	0.06566063
4	0x3d182937	0.03714868
5	0x3c8e9926	0.017407011
6	0xbcb21e2c	-0.021742903
7	0x3cd9e7cd	0.026599789
8	0x3c14043d	0.009034214
9	0x384c4a9a	4.870687e-05
10	0xbc0783bc	-0.008271154
11	0xbce73593	-0.028223788
12	0x3d6a719a	0.057237245
13	0x3c0048e0	0.007829875
14	0x3d88b137	0.06674426
15	0xbb876530	-0.0041319355
16	0x3d15b0f6	0.036545716
17	0x3a68d0c8	0.00088812085
18	0xbd117f18	-0.035521597
19	0xbc51afb6	-0.01279824
20	0x3cabb3d0	0.020959765
21	0x39110226	0.00013829078
22	0xbc656698	-0.014001511
23	0x3e2926cc	0.16518706
24	0xba1eb410	-0.0006054053
25	0x3d6744a9	0.056461964
26	0x3cf38dde	0.029730733
27	0x3c4ec623	0.012620482
28	0x3d08059e	0.033208482
29	0xbd05b2db	-0.032641273
30	0x3ce2debc	0.027694099
31	0x3db0c113	0.08630576
32	0x3d0c46c7	0.034247186
33	0xbd124a3d	-0.03571533
34	0xbbe2f320	-0.0069259554
35	0x3d2ec1c9	0.042665277
36	0xbc68ab11	-0.014200942
37	0x3d5c11d4	0.05372794
38	0xbc3bcd90	-0.011462584
39	0xbbb89abf	-0.0056336815
40	0xbcc539c5	-0.024075398
41	0x3d4bb9ac	0.049737617
42	0xbb71ec0c	-0.0036914377
43	0x3d184c63	0.037182223
44	0xbca3d38c	-0.019998334
45	0x3989d90f	0.00026292398
46	0xbc85e1a7	-0.016342951
47	0xbb9bb0b2	-0.0047512883
48	0xbc91c64e	-0.017794754
49	0x3cb3c0e3	0.021942561
50	0x3ca3072a	0.019900877
51	0x3d917402	0.07102205
52	0xbacd1d75	-0.0015649038
53	0xbc57f4ce	-0.013180925
54	0xbc8b393d	-0.016995067
55	0xbc456484	-0.012047891
56	0x3d34a387	0.044101264
57	0xbcb9b1f6	-0.022667866
58	0xbc1b49a7	-0.009478009
59	0xbc2446cf	-0.010026648
60	0x3d149b5e	0.036280982
61	0x3d0ab4b5	0.033863742
62	0x3e16221a	0.14661446
63	0x3dbd0063	0.092285894

output.weight f4 [1, 64]
0	0xbf16b002	-0.58862317
1	0x3d73cac3	0.05951954
2	0x3d9c942e	0.076454505
3	0xbf24fcc4	-0.6444819
4	0xbeb29d69	-0.3488572
5	0x3e05143e	0.12996003
6	0x3dbc04ab	0.09180578
7	0xbe24ca5e	-0.16092822
8	0x3d19dfd8	0.03756699
9	0xbb92e00e	-0.004482276
10	0x3de12b67	0.109946065
11	0xbd372caa	-0.04472033
12	0x3e410357	0.1884893
13	0x3df432d8	0.1192376
14	0x3e08f0f5	0.13373168
15	0xbc993f30	-0.018706888
16	0x3e4c66ca	0.19961086
17	0xbe2bd925	-0.16782053
18	0x3da91622	0.082561746
19	0x3c3d76a4	0.011563931
20	0xbdebac67	-0.115074925
21	0x3dbe9214	0.09305206
22	0xbd551368	-0.05202046
23	0xbf839318	-1.0279264
24	0x3dcfba43	0.101429485
25	0x3e0b329f	0.13593529
26	0xbef31702	-0.4747849
27	0xbdeaf6fe	-0.11472891
28	0x3e3735c6	0.17891607
29	0x3dec8adc	0.11549923
30	0xbe2ff165	-0.17181928
31	0xbedaa4b5	-0.42703786
32	0x3e1e5403	0.15461735
33	0x3d646980	0.055764675
34	0xbe6a0bba	-0.22856036
35	0x3e252ad0	0.16129613
36	0x3df2395d	0.118273474
37	0xbf4013c6	-0.7503017
38	0x3dc5121c	0.09622595
39	0xbbc0d8f5	-0.0058852383
40	0xbdeb149e	-0.11478542
41	0x3e22f9ee	0.15915653
42	0x3d3dfa89	0.046381507
43	0x3e0f8cd3	0.14018564
44	0xbdb76aac	-0.08955893
45	0x3d36a885	0.044594306
46	0xbcb83241	-0.0224849
47	0x3d779a80	0.060450077
48	0x3d8c9dc0	0.06866026
49	0xbe1144dc	-0.14186424
50	0xbb89a8e4	-0.0042010415
51	0xbf04628e	-0.5171288
52	0xbf1c931d	-0.6116198
53	0x3d7e0670	0.062017858
54	0xbf51525f	-0.81766313
55	0x3c713af6	0.01472353
56	0xbf402631	-0.75058275
57	0xbdb0516b	-0.08609279
58	0x3d87c8be	0.066300854
59	0x3c6494e7	0.013951517
60	0xbecae42e	-0.39627212
61	0xbeecad4d	-0.46225968
62	0xbf92c5d9	-1.1466628
63	0xbf3cfaa7	-0.73819965
